model/model.onnx (onnx, 990916 bytes, 152 tensors)

output_reg_layers.weight f4 [12, 72, 1, 1]
0	0x3d1817e1	0.037132148
1	0xbe715aa5	-0.23569734
2	0xbacc4fb4	-0.0015587718
3	0x3d5bc142	0.053651102
4	0xbaa77e4d	-0.001277873
5	0xbc291a14	-0.010321159
6	0xbd97f73c	-0.07420203
7	0x3cab1727	0.020885063
8	0x3debf5ae	0.11521469
9	0xbdc57746	-0.0964189
10	0xbda59162	-0.0808437
11	0x3d537297	0.051622953
12	0x3e3086af	0.17238878
13	0xbca1952a	-0.019724447
14	0xbd4fae93	-0.050703596
15	0x3e59532b	0.21223132
16	0xbdb8a37b	-0.090155564
17	0xbd0c7844	-0.03429438
18	0xbc0632fd	-0.0081908675
19	0xbd04174a	-0.032248773
20	0xbd0f4535	-0.03497811
21	0xbe34dce8	-0.17662394
22	0x3db4aa28	0.08821517
23	0xbd920c1c	-0.07131216
24	0xbd3ab931	-0.04558677
25	0x3e2be7f1	0.16787697
26	0xbe4ea826	-0.20181331
27	0x3e140399	0.14454497
28	0x3e27108d	0.16314907
29	0x3df9ec8c	0.12203321
30	0x3e80418f	0.25050017
31	0xbdb24002	-0.08703615
32	0xbe2992f6	-0.16559967
33	0x3dafc01f	0.08581566
34	0x3dd6098d	0.104510404
35	0xbd93dc77	-0.07219785
36	0x3c626841	0.013818801
37	0x3de0edfc	0.10982892
38	0x3dbeb33a	0.093115285
39	0xbd1abeae	-0.037779503
40	0xbdae2f6f	-0.08505141
41	0xbea3f465	-0.32022396
42	0xbd4ffd2b	-0.05077855
43	0xbe22e022	-0.15905812
44	0x3e7101c2	0.23535827
45	0x3caea2cf	0.021317868
46	0x3bdee2de	0.006801947
47	0x3e8d7ed5	0.27635828
48	0x3db2e676	0.08735363
49	0x39150227	0.00014210549
50	0xbcee4132	-0.029083822
51	0xbcabf7cb	-0.02099218
52	0x3cb63be2	0.022245351
53	0xbe66ef3a	-0.22552195
54	0x3e83ae7a	0.25719053
55	0xbced56b2	-0.028972004
56	0xbddd2733	-0.10798492
57	0x3d0dde64	0.034635916
58	0x3cd30212	0.025757823
59	0xbcbb8ba4	-0.022893734
60	0xbc95d664	-0.018290706
61	0xbd6e73ad	-0.058215786
62	0x3e10fec3	0.14159684
63	0xbb06c02c	-0.002056132
64	0x3d498f4c	0.049208924
65	0xbded15f7	-0.11576455
66	0x3e007977	0.12546335
67	0xbc735a58	-0.014853083
68	0xbaec5cc6	-0.001803302
69	0xbe01e72e	-0.12685844
70	0xbd0419d1	-0.032251183
71	0x3d931790	0.071822286
72	0x3cf09666	0.02936859
73	0x3ea3c79a	0.3198822
74	0x3cbbef03	0.022941118
75	0xbbcea1ec	-0.0063059237
76	0x3bdf75e1	0.006819472
77	0xbcf317d7	-0.029674454
78	0x3e26db9c	0.16294712
79	0xbdb97e90	-0.09057343
80	0xbe5d5789	-0.21615423
81	0xbe04e510	-0.12978005
82	0xbde56b78	-0.11202139
83	0x3ef9dfb7	0.48803493
84	0x3dd82f27	0.105558686
85	0x3d57f795	0.052726347
86	0x3e2a56bb	0.16634648
87	0xbd4c661c	-0.049902067
88	0x3d9f08ef	0.07765376
89	0x3def1056	0.11673038
90	0x3a76e2c0	0.00094179437
91	0xbb04195f	-0.0020156724
92	0xbd4915f2	-0.049093194
93	0xbc0261b9	-0.007957869
94	0xbcd47dc5	-0.025938878
95	0x3e77774d	0.24166603
96	0x3d9d8d7c	0.07693002
97	0x3d7ccaa6	0.061716698
98	0x3e368051	0.17822386
99	0xbda7a89e	-0.08186458
100	0x3e263072	0.16229418
101	0xbda2562a	-0.07926591
102	0xbd6bb623	-0.057546746
103	0x3c8d36d3	0.017238056
104	0xbe7b62e5	-0.24549444
105	0xbe0af848	-0.13571274
106	0xbe1a433f	-0.15064715
107	0x3d07b8aa	0.033135094
108	0x3cae8f87	0.021308674
109	0xbbdade00	-0.0066792965
110	0x3ce044c7	0.027376546
111	0x3dad5d7a	0.08465095
112	0x3c9abf89	0.01889016
113	0xbdefca44	-0.11708501
114	0xbe296007	-0.16540538
115	0x3dcf8938	0.10133594
116	0x3e4ae914	0.19815475
117	0xbcbfad67	-0.023398114
118	0xbd63c6a5	-0.055609364
119	0xbc958537	-0.018251998
120	0x3d026339	0.031832907
121	0x3d85a402	0.06525423
122	0x3d9900d9	0.07470865
123	0x3d0687ac	0.03284423
124	0x3e976466	0.29568785
125	0x3b409e3f	0.0029391197
126	0xbd8beb85	-0.06832031
127	0x3ca6a1f2	0.020340893
128	0x3ca7e825	0.020496437
129	0xbc980159	-0.01855533
130	0x3c22ed02	0.009944202
131	0x3d11e795	0.035621244
132	0x3c272dbc	0.010203775
133	0x3d4b4d38	0.04963419
134	0xbe140ca6	-0.1445795
135	0xbdeb222f	-0.114811294
136	0xbd3fcfc7	-0.04682901
137	0xbd8365f1	-0.06415928
138	0x3e23f0b0	0.16009784
139	0xbdb92a80	-0.09041309
140	0x3b239284	0.0024959156
141	0xbe2859b4	-0.16440469
142	0xbd82821d	-0.063724734
143	0xbe2a68d6	-0.16641554
144	0x3b0d00dd	0.0021515407
145	0xbbe4270f	-0.006962664
146	0x3b875dc8	0.0041310526
147	0xbb924301	-0.004463554
148	0xba61845a	-0.0008602791
149	0x3b703f37	0.0036658773
150	0xbb09b8d0	-0.0021014698
151	0x3bcda6a1	0.006275967
152	0x39d680cf	0.0004091323
153	0xbbbf325e	-0.0058348617
154	0xba4e7ebc	-0.0007877161
155	0x3d01134f	0.031512555
156	0xba58a437	-0.0008264216
157	0xbc179ba9	-0.009253421
158	0x3b0835ec	0.0020784093
159	0x3c11fde6	0.008910632
160	0xbc45aafa	-0.01206469
161	0xbd2289f0	-0.03968233
162	0x3c829865	0.015941808
163	0xbb6d10b6	-0.003617329
164	0x3ce36fbe	0.027763244
165	0x3c10d173	0.008838999
166	0xbac378bc	-0.0014913301
167	0x3c9554b7	0.018228872
168	0xba5475bc	-0.0008104702
169	0x3b2b2ca2	0.0026119133
170	0x3c8210a1	0.01587707
171	0xba77131d	-0.00094251503
172	0xbd1fecbe	-0.039044134
173	0xbc2cd90d	-0.010549796
174	0x3bf9e936	0.007626678
175	0xbae95074	-0.0017800466
176	0xbc3253ef	-0.010884269
177	0x3b7ce023	0.0038585744
178	0xbb8302b5	-0.0039981254
179	0x3bd91590	0.006624885
180	0xbc076101	-0.008262874
181	0x3c8dcdbe	0.01731002
182	0x3c1177e2	0.00887868
183	0x3c6d3506	0.014477974
184	0xbbccbc60	-0.006248042
185	0x3cbd6541	0.02311957
186	0xbbbc7312	-0.005751022
187	0xbb42a729	-0.0029701686
188	0xbcb09bec	-0.021558724
189	0xbc8ccd90	-0.017187864
190	0xbae77feb	-0.0017662024
191	0x3c0b3ff5	0.008499135
192	0x3ce340f4	0.027740933
193	0xbc1a4de4	-0.009417985
194	0x39de56f1	0.00042407916
195	0xbb623f84	-0.0034522722
196	0xbb66a6d0	-0.0035194643
197	0xbc9c65a9	-0.019091444
198	0xbc8a65ab	-0.016894182
199	0xbbcef00a	-0.006315236
200	0xbca62437	-0.02028094
201	0x3b263a6c	0.0025364412
202	0x3b244141	0.0025063308
203	0xbb7196ee	-0.0036863643
204	0xbb6937cf	-0.0035586243
205	0xba81e13a	-0.0009909042
206	0xbbda62b9	-0.0066646007
207	0x3b997f3e	0.004684358
208	0xbc1c21f7	-0.009529582
209	0xbc83b943	-0.01607955
210	0x3cb6be29	0.022307472
211	0xbb287b1a	-0.002570814
212	0xbb7c16fd	-0.003846585
213	0x3c6da009	0.014503487
214	0x3bbdcb20	0.0057920367
215	0x3b251310	0.0025188364
216	0xba4bb9b9	-0.000777151
217	0xbaa6b524	-0.0012718779
218	0x3b0f68e2	0.0021882583
219	0xbb8acec7	-0.0042360756
220	0xb9cb2e39	-0.00038753616
221	0xb9bf9c58	-0.00036546844
222	0xbb223776	-0.0024752296
223	0x3bfa0431	0.007629894
224	0x3b496af0	0.0030733906
225	0xbb4a374c	-0.0030855713
226	0x3b3daf6c	0.002894367
227	0x3ce56246	0.028000962
228	0x39f3d167	0.0004650459
229	0xbc16c9c2	-0.009203376
230	0x3b3eceb8	0.0029114913
231	0x3ba8bae0	0.0051492304
232	0xbc7d3202	-0.015453817
233	0xbd0d96f4	-0.03456779
234	0x3ca91e1e	0.020644244
235	0x3880befd	6.13909e-05
236	0x3cda2bfc	0.026632302
237	0x3c40853e	0.011750517
238	0xba9f1216	-0.0012136127
239	0x3caea0c4	0.021316893
240	0xb9e1bff6	-0.00043058366
241	0x3b6d7c34	0.003623736
242	0x3c7d57c3	0.015462819
243	0x3b8cd43d	0.0042977617
244	0xbd173b25	-0.03692164
245	0xbc37cc24	-0.0112181045
246	0x3bc2aadf	0.0059407796
247	0xbbd8f4c0	-0.0066209733
248	0xbc693ebb	-0.0142361475
249	0x3bfacd35	0.007653857
250	0xbb6d4301	-0.0036203268
251	0x3bacda79	0.0052750674
252	0xbc2abbc6	-0.010420745
253	0x3c80a810	0.015705138
254	0x3c21214f	0.009834602
255	0x3c3983a3	0.011322889

output_reg_layers.bias f4 [12]
0	0xbd8eec2b	-0.06978639
1	0x3d9f5d37	0.07781451
2	0x3c78b2c6	0.015179342
3	0xbd410ec6	-0.04713323
4	0xbd8df88a	-0.06932171
5	0x3da1d505	0.079019584
6	0x3bd3aa3b	0.006459502
7	0xbd63e10f	-0.055634554
8	0xbd8e60a4	-0.069520265
9	0x3da14932	0.07875289
10	0xbb4f3f93	-0.0031623587
11	0xbd848981	-0.06471539

output_obj_layers.weight f4 [3, 72, 1, 1]
0	0xbf42b36a	-0.76055014
1	0xbdfe5507	-0.124185614
2	0x3f00e390	0.5034723
3	0x3f238485	0.63874084
4	0xbe8e68bb	-0.27814278
5	0x3dc340ae	0.09533821
6	0xbd28f050	-0.041244805
7	0x3dc0d6c1	0.09415961
8	0x3e9e5c21	0.30929664
9	0xbdc813ed	-0.097694255
10	0xbed73b95	-0.42037645
11	0xbd8e2d7c	-0.06942269
12	0xbe2a41a6	-0.16626605
13	0x3df6b199	0.12045593
14	0x3dd2d303	0.102941535
15	0xbd39267b	-0.045202713
16	0xbeb17107	-0.34656546
17	0x3eb079f6	0.3446805
18	0x3e9dc5fe	0.3081512
19	0xbe5541db	-0.20825903
20	0x3e3be560	0.18349218
21	0x3d8103d0	0.06299555
22	0xbeada20d	-0.33912697
23	0xbdda37c6	-0.10655169
24	0x3e875606	0.26432818
25	0x3dbddcfc	0.09270665
26	0x3dcddee6	0.1005228
27	0x3d641185	0.05568077
28	0x3e405953	0.18784074
29	0x3ed9d6c7	0.42546675
30	0xbd359f2f	-0.044341262
31	0xbea8d96b	-0.32978377
32	0x3e98ef92	0.29870278
33	0xbce31b07	-0.027722849
34	0x3f3135c7	0.6922268
35	0xbcd7dfa2	-0.026351754
36	0xbeeea473	-0.4660984
37	0xbe251c92	-0.1612418
38	0x3d91d724	0.07121113
39	0xbe69bf13	-0.22826795
40	0x3ebb0e1e	0.36534208
41	0xbeb14cc2	-0.34628874
42	0x3d52eda8	0.051496178
43	0xbe1d58df	-0.15365933
44	0xbd009a39	-0.03139708
45	0x3f0bdf6f	0.5463781
46	0xbdf97193	-0.12179866
47	0xbe92dada	-0.28682595
48	0xbd860c1b	-0.06545278
49	0x3eb464f5	0.35233274
50	0x3d54d381	0.05195952
51	0x3de4fe68	0.11181337
52	0xbbad72ab	-0.0052932105
53	0x3c165a66	0.009176826
54	0xbecd4ee5	-0.40099254
55	0xbc4d5e20	-0.012534648
56	0x3d5af065	0.053451914
57	0x3c99306a	0.018699843
58	0x3dd3a88c	0.10334882
59	0x3f435459	0.7630058
60	0xbe31f99f	-0.17380379
61	0x3cc0df78	0.023544058
62	0xbc9b9293	-0.01899079
63	0xbf3eefb1	-0.7458449
64	0xbe1ea4a0	-0.15492487
65	0x3eda56e2	0.4264441
66	0x3d4a31e6	0.049363993
67	0x3ee713b8	0.45132232
68	0x3e05fc9f	0.13084649
69	0x3f6f831e	0.93559444
70	0xbc4636f3	-0.012098062
71	0xbda2456d	-0.07923398
72	0xbf403983	-0.75087756
73	0xbdbd243a	-0.09235425
74	0x3f03e53d	0.51521665
75	0x3f1e921c	0.61941695
76	0xbe8abd31	-0.27097467
77	0x3da289b7	0.07936423
78	0xbc74f1d7	-0.014950237
79	0x3d9236b3	0.07139339
80	0x3eb06d57	0.3445842
81	0xbe1d78c0	-0.15378094
82	0xbecb16bd	-0.39665785
83	0xbbdcbc1c	-0.0067362916
84	0xbe21d2f2	-0.15803126
85	0x3e143cc9	0.14476313
86	0x3d788fdd	0.060684074
87	0xbd860e86	-0.06545739
88	0xbec85a21	-0.39131263
89	0x3ebdff0d	0.3710865
90	0x3ea23c27	0.31686518
91	0xbe444b79	-0.19169416
92	0x3de01c87	0.10942941
93	0x3db37c77	0.08763974
94	0xbeb3c480	-0.35110855
95	0xbdac8f4a	-0.08425768
96	0x3e6b3e3b	0.22972958
97	0x3d907d54	0.070551544
98	0x3d9f6ed7	0.07784813
99	0x3d7e5691	0.062094275
100	0x3e1c0aa0	0.15238428
101	0x3eeac4c6	0.4585325
102	0xbd988494	-0.07447162
103	0xbeb02adc	-0.344077
104	0x3ea16747	0.31524107
105	0xbcf2daa5	-0.029645273
106	0x3f2fa5a8	0.68612146
107	0xbd164497	-0.036686506
108	0xbed4dd19	-0.41574934
109	0xbe070460	-0.13185263
110	0x3d8383ec	0.064216465
111	0xbe98f09d	-0.29871073
112	0x3ebb0c62	0.36532885
113	0xbed131b9	-0.40858248
114	0x3d23583a	0.03987906
115	0xbe32437c	-0.17408556
116	0xbcc2e7f1	-0.023792239
117	0x3f034414	0.51275754
118	0xbd82f3c6	-0.06394152
119	0xbe921aa9	-0.28535965
120	0xbdff8345	-0.124762096
121	0x3eb5071c	0.35356987
122	0x3d6e68d8	0.058205456
123	0x3dfa0862	0.1220863
124	0xbc768a0d	-0.015047562
125	0xbac68fad	-0.001514902
126	0xbece0285	-0.40236297
127	0xba2f10e3	-0.00066782365
128	0x3db4a9fb	0.08821484
129	0xbc974e57	-0.018469973
130	0x3da90c78	0.08254331
131	0x3f3a407a	0.72754633
132	0xbe32c4eb	-0.1745793
133	0xbc781c39	-0.015143448
134	0x3abcf1ac	0.0014415286
135	0xbf415ab6	-0.7552904
136	0xbe3dda0b	-0.18540208
137	0x3edd7de7	0.43260118
138	0x3d0226a6	0.03177514
139	0x3edd159a	0.43180543
140	0x3e250c93	0.16118078
141	0x3f6d9dc7	0.92818874
142	0xbd13affb	-0.0360565
143	0xbdb93335	-0.0904297
144	0xbf46066b	-0.77353543
145	0xbe36dca1	-0.17857601
146	0x3f0a6df7	0.54074043
147	0x3f24c86d	0.64368325
148	0xbe5b16da	-0.21395436
149	0x3db01496	0.085976765
150	0xbd7993d5	-0.060932
151	0x3d4ff2e1	0.050768737
152	0x3ebaeeb3	0.36510238
153	0xbddae5dd	-0.10688374
154	0xbecf9c5a	-0.40548974
155	0xbdece301	-0.11566735
156	0xbe1d7160	-0.1537528
157	0x3dda4d2f	0.10659253
158	0x3d8ccb0b	0.06874665
159	0xbd5e17a8	-0.05422178
160	0xbeaa3f83	-0.3325158
161	0x3ea0dd29	0.31418732
162	0x3e97ad91	0.29624608
163	0xbe808513	-0.25101528
164	0x3e37c603	0.17946629
165	0x3e046779	0.12930097
166	0xbea2f7be	-0.31829637
167	0xbe121474	-0.14265615
168	0x3e3b35b2	0.18282202
169	0x3dc9ee1f	0.09859871
170	0x3cf4c8a5	0.029880831
171	0x3c9bcbdc	0.019018106
172	0x3e638fde	0.2222285
173	0x3edb04b8	0.42777038
174	0xbdeabfac	-0.1146234
175	0xbeada7cd	-0.33917084
176	0x3ea4f26d	0.32216206
177	0xbd0539b5	-0.032525737
178	0x3f28012b	0.6562678
179	0xbd2299b1	-0.039697353
180	0xbee42b15	-0.4456412
181	0xbdecd7d9	-0.11564607
182	0x3d6010c3	0.054703485
183	0xbe95bd14	-0.29245818
184	0x3ed0725f	0.40712258
185	0xbec5b9fb	-0.38618454
186	0x3d867b8d	0.06566534
187	0xbdfbe2e5	-0.12299136
188	0x3c499ecd	0.012305927
189	0x3f0afd5a	0.54292834
190	0xbdf6e081	-0.120545395
191	0xbe927999	-0.28608397
192	0xbdb25ef0	-0.08709514
193	0x3ec5248b	0.38504443
194	0x3ce29a89	0.027661579
195	0x3daa6f4f	0.08322012
196	0xbc8898e6	-0.01667447
197	0x3bea7764	0.0071553458
198	0xbecfb859	-0.40570334
199	0xbcee6ed8	-0.029105589
200	0x3dc4dc76	0.09612362
201	0xbc4d9bce	-0.012549354
202	0x3dbd0f7b	0.09231468
203	0x3f45ab2e	0.77214324
204	0xbe24f10c	-0.16107577
205	0x3cadb018	0.021202132
206	0xbc5a6f09	-0.013332137
207	0xbf3753d1	-0.7161227
208	0xbe240567	-0.16017686
209	0x3ec48e7c	0.38389957
210	0x3da7775b	0.08177062
211	0x3ecb28c5	0.39679542
212	0x3e32aa9a	0.17447892
213	0x3f68db30	0.90959454
214	0xbd0377db	-0.032096725
215	0xbd31d4dc	-0.04341589

output_obj_layers.bias f4 [3]
0	0xc0073b29	-2.1129858
1	0xc009aab2	-2.1510434
2	0xc00b0fec	-2.1728468

output_cls_layers.weight f4 [2, 72, 1, 1]
0	0xbe46859a	-0.19386902
1	0xbe21c6a2	-0.15798429
2	0xbe782008	-0.24230969
3	0x3ebe1b74	0.3713032
4	0xbeaef742	-0.34173018
5	0xbee0d352	-0.43911225
6	0xbe3ac5df	-0.18239544
7	0x3e4dc4c2	0.20094588
8	0xbe3172de	-0.17328975
9	0xbe7d721c	-0.2475056
10	0x3edfcdc3	0.4371167
11	0x3eede6c6	0.4646513
12	0x3e80b754	0.25139868
13	0x3e25f883	0.16208081
14	0x3dfcc398	0.12341994
15	0x3e7ed04f	0.24884151
16	0xbec08de7	-0.37608263
17	0xbded8122	-0.11596896
18	0xbd66edac	-0.056379005
19	0xbe7a2def	-0.24431585
20	0xbf14aa8b	-0.5807273
21	0xbdd717d7	-0.10502594
22	0x3dfd6431	0.123726256
23	0x3e208b60	0.15678167
24	0x3e8edd0e	0.27903026
25	0x3e92528b	0.285786
26	0xbe6215b5	-0.22078593
27	0xbe20bddd	-0.15697427
28	0x3d8bcf55	0.06826655
29	0xbf115884	-0.5677569
30	0x3e3dcf1f	0.18536042
31	0x3ec645f5	0.38725248
32	0xbe66fa88	-0.22556508
33	0x3eb549f3	0.3540798
34	0xbe844aac	-0.2583822
35	0xbe57d984	-0.2107907
36	0xbeee4f5a	-0.46544915
37	0x3f085f0f	0.5327005
38	0x3f108db5	0.5646623
39	0xbe231d56	-0.1592916
40	0x3ed32ae2	0.41243654
41	0xbcc93237	-0.024560077
42	0x3e3409b1	0.17581822
43	0x3eb935bf	0.36173818
44	0x3eac01b4	0.3359505
45	0x3e57b3fb	0.21064751
46	0xbda9c691	-0.08289827
47	0xbf6f890a	-0.9356848
48	0x3e7e5c73	0.24839954
49	0xbe9df9aa	-0.3085454
50	0x3e79b96b	0.24387138
51	0x3df68d43	0.12038662
52	0x3e9d9423	0.30777082
53	0x3efc5255	0.49281564
54	0xbf358055	-0.70898944
55	0xbd7eed07	-0.062237766
56	0x3e2dc66a	0.1697022
57	0x3f0cf5ab	0.5506236
58	0xbd97b9f5	-0.07408515
59	0x3e6c7f11	0.23095347
60	0x3eadf35d	0.33974734
61	0xbe17187e	-0.14755437
62	0x3ee60f7a	0.44933683
63	0x3c6e9fcf	0.0145644685
64	0xbe36b6be	-0.17843148
65	0xbe5b6b25	-0.21427591
66	0xbc37d6cc	-0.011220645
67	0xbe7ff109	-0.24994291
68	0x3ee3c78f	0.4448819
69	0x3eb261dc	0.34840286
70	0xbcf7e127	-0.030258728
71	0xbeb8fa65	-0.36128536
72	0x3e754fc1	0.23956205
73	0x3ea3db50	0.3200326
74	0x3e8153e0	0.25259304
75	0xbee545b7	-0.4477975
76	0x3ecda722	0.40166575
77	0x3e8c1e0b	0.2736667
78	0x3e4acd2e	0.19804832
79	0xbe192964	-0.14957196
80	0x3e8080a3	0.25098142
81	0x3e81ea54	0.2537409
82	0xbe9a7496	-0.30167073
83	0xbeb3c6a1	-0.3511248
84	0xbe616904	-0.22012717
85	0xbe30614b	-0.17224614
86	0xbe1e651a	-0.15468255
87	0xbe758e85	-0.23980148
88	0x3e9a2724	0.30107987
89	0x3d63b9af	0.055597004
90	0x3d00dc0b	0.03145985
91	0x3de32ef2	0.110929385
92	0x3f36e861	0.7144833
93	0x3ddfe16a	0.10931666
94	0xbe00e664	-0.12587887
95	0xbe056747	-0.13027678
96	0xbe95576b	-0.29168257
97	0xbeb52022	-0.35376078
98	0x3dec605e	0.11541818
99	0x3ca50ef9	0.020148741
100	0xbcceca31	-0.025242897
101	0x3f1e8a6b	0.6192996
102	0xbd8a18db	-0.06743022
103	0xbf02d15f	-0.51100725
104	0x3e521275	0.20514853
105	0xbe62b702	-0.22140124
106	0x3e8023fc	0.25027454
107	0x3e80bf31	0.25145867
108	0x3ed3efc8	0.41393876
109	0xbecefccc	-0.40427244
110	0xbf1a6875	-0.6031564
111	0x3e844460	0.25833416
112	0xbecc9466	-0.3995697
113	0xbe1b0dbc	-0.15141958
114	0xbe39396f	-0.18088315
115	0xbeba875d	-0.364314
116	0xbeaa18e4	-0.33222115
117	0xbe351e8b	-0.17687432
118	0x3e328a16	0.17435488
119	0x3f85ae43	1.0443805
120	0xbe7e5409	-0.24836744
121	0x3e8c967f	0.2745857
122	0xbe0628da	-0.13101521
123	0xbd698526	-0.057011746
124	0xbe61eedf	-0.22063778
125	0xbf0ff569	-0.5623384
126	0x3f34d3ec	0.7063587
127	0x3de510ef	0.111848705
128	0xbe41a737	-0.18911444
129	0xbf06f682	-0.5271989
130	0xbd717f66	-0.058959387
131	0xbec03296	-0.37538594
132	0xbed51a4f	-0.41621634
133	0x3e141b86	0.14463624
134	0xbebd1b4a	-0.36934882
135	0x3e03f21c	0.12885326
136	0x3e5150eb	0.20441024
137	0x3e30eb3b	0.17277233
138	0x3d77ec1d	0.06052791
139	0x3edf38bf	0.4359798
140	0xbee5f694	-0.44914687
141	0xbec92301	-0.39284518
142	0x3dad25e0	0.0845449
143	0x3f041828	0.5159936

output_cls_layers.bias f4 [2]
0	0x3e12712e	0.14300987
1	0xbdac8bd8	-0.084251106

onnx::Conv_774 f4 [24, 3, 3, 3]
0	0x3f0a28a2	0.5396825
1	0x3ebde977	0.37092182
2	0x3ea31844	0.3185445
3	0x3f1a2477	0.6021189
4	0x3f0521d6	0.52004755
5	0x3f0f4c62	0.55975926
6	0x3eb0d465	0.34537044
7	0x3eb1f9c9	0.34760883
8	0x3ed6b0df	0.41931817
9	0xbf90e02c	-1.1318412
10	0xbfabd1d8	-1.3423414
11	0xbfa902a7	-1.3203934
12	0xbfa72b85	-1.3060156
13	0xbfb0b285	-1.380448
14	0xbf968031	-1.1757871
15	0xbfc93aed	-1.5721108
16	0xbfbf31e6	-1.4937103
17	0xbf9a75f5	-1.2067248
18	0x3db06eaf	0.08614861
19	0xbdb704ea	-0.08936484
20	0x3da798c3	0.08183434
21	0x3d7aa647	0.06119373
22	0x3d987023	0.074432634
23	0x3e8e2b55	0.27767435
24	0x3d013c8b	0.03155188
25	0x3e49f688	0.1972295
26	0x3ef7b2aa	0.48378497
27	0x3f7694b1	0.96320635
28	0x3f84fbcf	1.0389346
29	0x3f83a485	1.0284582
30	0x3f7fed81	0.9997178
31	0x3f84cca3	1.037495
32	0x3f6db695	0.92856723
33	0x3f7c65dd	0.9859293
34	0x3f780bd8	0.9689307
35	0x3f6a4278	0.91507673
36	0x3f2a773d	0.66588193
37	0x3f476df3	0.77902144
38	0x3f48ebd6	0.7848486
39	0x3f3e5ffd	0.74365216
40	0x3f573a8e	0.8407372
41	0x3f37e5ff	0.7183532
42	0x3f4aaf60	0.7917385
43	0x3f408c45	0.75214034
44	0x3f249a41	0.6429787
45	0xbe457fe5	-0.19287069
46	0xbdf518d5	-0.11967627
47	0xbdad14b9	-0.08451218
48	0xbe1a0e2c	-0.15044469
49	0xbd2be9be	-0.04197096
50	0xbdb0d78e	-0.08634864
51	0xbd4b2f38	-0.04960558
52	0xbd4c953b	-0.049947005
53	0xbdf77bc7	-0.120841555
54	0xbfc77c1e	-1.5584753
55	0xbfcb6729	-1.5890857
56	0xbfc87c70	-1.5662975
57	0xbfcbfb8a	-1.5936139
58	0xbfd4aeef	-1.6615885
59	0xbfce7536	-1.612952
60	0xbfc4c653	-1.5373024
61	0xbfc8fc8d	-1.5702072
62	0xbfc6a56e	-1.5519235
63	0xbfff9921	-1.9968606
64	0xbfff6986	-1.9954078
65	0xbff2a387	-1.8956155
66	0xc001b0cb	-2.0264156
67	0xc00394ae	-2.0559497
68	0xbff7b3ae	-1.9351709
69	0xc00027d2	-2.0024304
70	0xc00045f0	-2.0042686
71	0xbff214ac	-1.8912559
72	0xbedcc758	-0.43120837
73	0xbed291f7	-0.41126987
74	0xbef7fbfc	-0.48434436
75	0xbec2c8b2	-0.38043743
76	0xbeb05e85	-0.34447113
77	0xbee6b0cb	-0.45056757
78	0xbf04c5cf	-0.5186433
79	0xbef9d76f	-0.48797175
80	0xbf09b7f0	-0.5379629
81	0x3f8717bc	1.0554118
82	0x3f86ae11	1.0521871
83	0x3f704918	0.9386153
84	0x3f93788e	1.1521165
85	0x3f921fdb	1.1415972
86	0x3f82fe84	1.0233922
87	0x3f872646	1.0558555
88	0x3f850154	1.039103
89	0x3f6fb46e	0.9363469
90	0x3fb9b6d6	1.4508922
91	0x3fbf94a7	1.496724
92	0x3fc069ae	1.5032251
93	0x3fca008b	1.5781416
94	0x3fcf9f14	1.6220422
95	0x3fcef46b	1.616834
96	0x3fcd3cf5	1.6034228
97	0x3fd3881b	1.6525911
98	0x3fd0f182	1.6323702
99	0x4002d260	2.0440903
100	0x3fff6ad6	1.9954479
101	0x4001b5fa	2.026732
102	0x4008b344	2.1359415
103	0x40042d36	2.0652595
104	0x4006bff1	2.1054652
105	0x400d39f0	2.2066612
106	0x4009e141	2.1543734
107	0x400b9962	2.1812367
108	0x3e1d19b6	0.15341839
109	0xbe7d94cd	-0.24763794
110	0xbe9b384a	-0.30316383
111	0x3e37eb6c	0.179609
112	0xbd4acdd6	-0.049512707
113	0xbe753b29	-0.23948349
114	0x3dfb0a46	0.12257819
115	0xbdec3077	-0.115326814
116	0xbe91432d	-0.28371564
117	0x3ec55e7e	0.38548654
118	0xbee231d3	-0.44178638
119	0xbf33eb93	-0.7028133
120	0x3ecc8072	0.39941746
121	0xbe56997d	-0.20956989
122	0xbf2519fa	-0.6449276
123	0x3ea50265	0.3222839
124	0xbe7297cc	-0.23690718
125	0xbf25ce93	-0.6476833
126	0x3e3078ba	0.17233554
127	0xbee48f71	-0.44640687
128	0xbf07d907	-0.5306553
129	0x3e38bbe3	0.18040423
130	0xbe652ed0	-0.22381139
131	0xbee620c4	-0.44946873
132	0x3e4f5911	0.2024882
133	0xbe3ed1ac	-0.18634671
134	0xbef85a0d	-0.48506203
135	0x3d693090	0.05693108
136	0xbd370220	-0.04467976
137	0x3d87e0cc	0.066346735
138	0xbc3b9f02	-0.011451485
139	0xbd403eff	-0.046935078
140	0x3c5277a2	0.0128459055
141	0x3ca97360	0.020684898
142	0xbd652229	-0.05594078
143	0x3c555625	0.013021027
144	0x3b2a9d22	0.00260336
145	0xbda76e3f	-0.08175325
146	0xbb959405	-0.0045647644
147	0xbd1fd426	-0.03902068
148	0xbd4b5d1c	-0.049649343
149	0xbc083384	-0.0083130635
150	0x3d0adf67	0.03390446
151	0xbcb5f751	-0.022212656
152	0x3d1320f8	0.035920113
153	0xbdc80c6a	-0.09767993
154	0xbe4d970e	-0.20077154
155	0xbe26cdae	-0.16289398
156	0xbde1017f	-0.109866135
157	0xbe1de8d9	-0.15420856
158	0xbe174f47	-0.14776336
159	0xbc927649	-0.017878668
160	0xbe14a325	-0.1451536
161	0xbdfbaf54	-0.122893006
162	0x3ea3c2d9	0.31984594
163	0x3f331f1d	0.6996935
164	0x3f8c455b	1.0958666
165	0x3e64be64	0.22338253
166	0x3f2915bb	0.66048783
167	0x3f7ff464	0.99982285
168	0x3df64550	0.12024939
169	0x3ebc1c05	0.36740127
170	0x3f8d1e58	1.1024885
171	0xbf9f2cd1	-1.2435552
172	0xbf506d7e	-0.8141707
173	0xbe0ccc22	-0.13749745
174	0xbfae8fd1	-1.3637639
175	0xbf7ff8f7	-0.99989265
176	0xbeae2c86	-0.34018344
177	0xbfb3e209	-1.4053355
178	0xbfac6b1c	-1.3470187
179	0xbe9d1f24	-0.3068782
180	0xbd6960cc	-0.05697708
181	0x3e1313ab	0.14362971
182	0x3f289756	0.6585592
183	0xbe8b00fc	-0.2714919
184	0xbe6a4ba0	-0.22880411
185	0x3e77424c	0.24146384
186	0xbed843cb	-0.42239222
187	0xbf19565b	-0.59897393
188	0x3e9814e2	0.29703432
189	0x3d5fd485	0.054646034
190	0x3deaad6a	0.11458857
191	0x3de67bc6	0.11254077
192	0xbdab3575	-0.083598055
193	0x3d040334	0.032229617
194	0x3d986927	0.07441931
195	0xbd8c40d8	-0.068483055
196	0x3d1bc818	0.03803262
197	0x3e0d46f1	0.13796593
198	0x3d00337f	0.03129911
199	0x3cd91453	0.02649895
200	0xbc64dfc5	-0.013969366
201	0x3d530c52	0.05152542
202	0xba94504e	-0.0011315437
203	0xbae7adf6	-0.0017675746
204	0x3dfeedfd	0.124477364
205	0x3ae46c38	0.0017427271
206	0x3d1f0f92	0.03883321
207	0x3dd4094a	0.10353334
208	0x3da03307	0.07822233
209	0xbda45d1a	-0.0802557
210	0x3d304d6d	0.04304259
211	0x3b92def3	0.004482144
212	0xbca6c167	-0.020355893
213	0x3df765e7	0.12079983
214	0x3cc99fef	0.024612395
215	0x3da4321b	0.08017369
216	0xbdd92a9a	-0.10603829
217	0xbe49644b	-0.19667165
218	0xbdbf2bee	-0.09334551
219	0x3c2eaec4	0.010661785
220	0xbd73414a	-0.059388436
221	0xbe4dbe91	-0.20092227
222	0x3d1099b8	0.035302848
223	0x3e6838e6	0.22677955
224	0x3e0aa524	0.13539559
225	0x3d0ff044	0.035141245
226	0xbe41e2ca	-0.1893417
227	0xbd83bb4d	-0.06432209
228	0x3eb4c0aa	0.3530324
229	0x3e3852b9	0.18000306
230	0xbcd00c97	-0.025396628
231	0x3ee293e0	0.44253445
232	0x3f27288c	0.65296245
233	0x3f056bc0	0.5211754
234	0xbed8df34	-0.4235779
235	0xbf265331	-0.6497069
236	0xbf19d976	-0.60097444
237	0x3d7e20db	0.062043052
238	0xbe36a2dc	-0.17835563
239	0xbee41444	-0.4454671
240	0x3ebfb85f	0.3744535
241	0x3efb1ec4	0.4904691
242	0x3eae0043	0.33984575
243	0x3e8f7bda	0.2802418
244	0xbe21e736	-0.15810856
245	0xbe818322	-0.2529536
246	0xbe1e91ab	-0.15485255
247	0xbf02566e	-0.5091313
248	0xbe527482	-0.20552257
249	0xbe5e50d5	-0.21710522
250	0xbe76880e	-0.24075338
251	0x3e312dc1	0.1730261
252	0x3ecf00d9	0.40430334
253	0xbe4e287f	-0.20132636
254	0xbe449c1e	-0.19200179
255	0xbe35bcad	-0.17747755

onnx::Conv_775 f4 [24]
0	0x3ef1434e	0.47121662
1	0xbd5cad80	-0.0538764
2	0x4141e5a2	12.118563
3	0xc09cdfa1	-4.9022985
4	0x3f8ad8a7	1.0847367
5	0x3fa1a3fb	1.2628168
6	0x3f2a49c6	0.6651882
7	0xbf8d394e	-1.1033113
8	0x3e5407f9	0.20706166
9	0x3f8d8dcf	1.1058902
10	0xc0c44ed0	-6.1346207
11	0xba74c0dd	-0.00093366
12	0x3edb80ea	0.4287179
13	0x3f1ab8ae	0.6043805
14	0x3de6ef24	0.11276081
15	0xbb044358	-0.0020181742
16	0x3f863316	1.048434
17	0xbe10a8c0	-0.14126873
18	0x3df41740	0.11918497
19	0x3f050557	0.5196127
20	0xbef9056e	-0.48636955
21	0x4004bb18	2.0739193
22	0x3e538ec4	0.2065993
23	0xbed7fcfd	-0.42185202

onnx::Conv_777 f4 [24, 1, 3, 3]
0	0x409fbf7b	4.992124
1	0xc002c640	-2.0433502
2	0xbfb3621b	-1.4014314
3	0x40afb3a4	5.490679
4	0xc0bc5314	-5.8851414
5	0x403fcbd3	2.9968154
6	0xc04ac0b2	-3.1680112
7	0xc10223c8	-8.133736
8	0x3deca7a4	0.115554124
9	0x3d12196d	0.03566878
10	0x3cd67ac9	0.026181595
11	0xb98e887a	-0.00027186034
12	0xbd401e32	-0.046903796
13	0xbd77e472	-0.060520597
14	0xbda136bb	-0.07871767
15	0xbdc59296	-0.096471
16	0xbdb6b4c1	-0.08921195
17	0xbded1628	-0.115764916
18	0xbd266018	-0.040618986
19	0xbd51ce11	-0.05122191
20	0x3be5ea73	0.007016474
21	0xbd4461f7	-0.04794499
22	0xbd29d0d6	-0.041458927
23	0xbc34cfc3	-0.011035862
24	0xbb030d05	-0.0019996774
25	0xbced1656	-0.028941315
26	0x38dee98d	0.00010629287
27	0xbe1e1c09	-0.15440382
28	0x3d1b363a	0.03789351
29	0x3d914a6a	0.070942715
30	0xbe52d863	-0.20590357
31	0x3e0b910b	0.13629548
32	0x3e148605	0.1450425
33	0x3b969cff	0.004596352
34	0x3e8ef5eb	0.27921996
35	0x3eba11cc	0.36341703
36	0xbdaf3c0c	-0.08556375
37	0xbec03480	-0.37540054
38	0xbe886ad6	-0.2664401
39	0xbe05c98a	-0.13065162
40	0xbebff364	-0.3749038
41	0xbe75d2d7	-0.2400621
42	0xbddf3ba9	-0.10900051
43	0xbeef7508	-0.46768975
44	0xbe96aeea	-0.29430324
45	0x3e1cb95d	0.15305085
46	0x3ea690df	0.32532403
47	0x3e8ab9ee	0.27094978
48	0xbedc9321	-0.43081
49	0x3ee78507	0.4521868
50	0x3f71d60a	0.9446722
51	0xbf073dcd	-0.52828676
52	0x3e92f354	0.2870127
53	0x3f8a1161	1.0786554
54	0x3e302423	0.17201285
55	0xbf16aeb5	-0.5886033
56	0xbd3e0677	-0.046392884
57	0xbe1fbd78	-0.1559962
58	0xbea952f6	-0.33071107
59	0xbec0457c	-0.37553012
60	0xbf2ce883	-0.67542285
61	0xbf4bf003	-0.79663104
62	0xbf608f86	-0.87719
63	0xbeab5051	-0.33459714
64	0x3f70716b	0.9392306
65	0x3faec565	1.365399
66	0xbf920e4f	-1.1410617
67	0x4005e287	2.0919511
68	0x4085e470	4.1841354
69	0xc01e41ce	-2.4727664
70	0x403f5ad4	2.9899187
71	0x40cb0be7	6.345203
72	0x3d9eecba	0.07759996
73	0x3d5a7bb3	0.053340625
74	0x3e314712	0.17312267
75	0xbd32a410	-0.043613493
76	0x3dc89907	0.09794813
77	0x3e6fa4cd	0.2340271
78	0xbc9a423b	-0.01883041
79	0x3dae7494	0.08518329
80	0x3f0a87d7	0.54113525
81	0x3d567aed	0.052363325
82	0xbd08e864	-0.03342475
83	0x3d25b600	0.04045677
84	0xbe8afdd3	-0.27146778
85	0xbed9c69d	-0.42534342
86	0xbeee8f49	-0.46593693
87	0xbe0e99d3	-0.13925867
88	0xbd71d401	-0.059040073
89	0xbf286c7c	-0.65790534
90	0xbec03435	-0.3753983
91	0x3e2096f3	0.15682583
92	0x3cae8d09	0.021307485
93	0xbd15e1ea	-0.0365924
94	0x3f047bd4	0.51751447
95	0x3e45b570	0.19307494
96	0xbcae51dc	-0.021279268
97	0x3f6c0245	0.92190963
98	0x3f50fae3	0.8163282
99	0xaa6d0ab2	-2.1053539e-13
100	0xaa9d381f	-2.7927744e-13
101	0xaab43650	-3.201211e-13
102	0xaa2b88ba	-1.5235288e-13
103	0xaa0bf7dd	-1.2431675e-13
104	0x2a6a02c0	2.0784329e-13
105	0xaa71d99d	-2.14806e-13
106	0x2a95d28e	2.6613819e-13
107	0x2aa78d2e	2.9763122e-13
108	0xbf1e1310	-0.6174784
109	0xbf1ba499	-0.6079803
110	0xbedecdc7	-0.4351637
111	0xbebf294e	-0.373362
112	0xbe8e73fd	-0.27822867
113	0x3c4b81fc	0.012421127
114	0xbe93af21	-0.2884455
115	0xbdbc56ba	-0.09196229
116	0x3decbf1f	0.11559891
117	0x3d00ea42	0.031473406
118	0x3cb7a9fe	0.022419926
119	0x3c34132f	0.010990902
120	0x3bbf8636	0.0058448566
121	0xbb55647f	-0.003256112
122	0xbc7116c5	-0.014714901
123	0x3b295d82	0.0025843089
124	0xbc0958fc	-0.008383032
125	0xbcb3d3a8	-0.021951512
126	0xbe189147	-0.14899169
127	0x3d30c3ea	0.04315559
128	0xbc0e782e	-0.008695645
129	0xbda4d255	-0.0804793
130	0xbd803dd8	-0.06261796
131	0xbe755d40	-0.23961353
132	0xbd5c7ba0	-0.053828835
133	0xbdc2a5c7	-0.09504276
134	0xbed715f4	-0.42008936
135	0x2ac94828	3.575484e-13
136	0x28a28b12	1.8045925e-14
137	0xaa7dd4bb	-2.254472e-13
138	0xaa222b89	-1.4403595e-13
139	0xaab5924b	-3.225357e-13
140	0x2858f31d	1.20431255e-14
141	0xaaece71d	-4.2082388e-13
142	0x2a979b93	2.693094e-13
143	0xa994c79a	-6.6071457e-14
144	0x3f5930ac	0.8483989
145	0xbf841b07	-1.0320748
146	0x3edadd57	0.42746994
147	0x3fdf534f	1.7447299
148	0xbf345c8f	-0.70453733
149	0xc0160427	-2.3440034
150	0x404c06de	3.1879191
151	0xbfa353c1	-1.2759935
152	0xc074e71f	-3.8266065
153	0xbfb561f8	-1.4170523
154	0x3f3b4564	0.73152757
155	0x3f85b1c3	1.0444874
156	0xc086d063	-4.212938
157	0x3f11b5a0	0.5691776
158	0x40ceb5e9	6.459706
159	0xc00afb21	-2.1715777
160	0x3e253b26	0.16135845
161	0x40a89b28	5.26894
162	0x3d0b7fd6	0.03405746
163	0xbdbcfd7d	-0.092280366
164	0xbdb92132	-0.09039535
165	0x3dceb4ab	0.100930534
166	0xbe15a89a	-0.14615098
167	0xbdcc3d4f	-0.09972631
168	0x3dcfdd3a	0.101496175
169	0xbdce2ba5	-0.10066918
170	0xbd800a31	-0.06251944
171	0xbe6a1fd7	-0.22863708
172	0xbeb188d8	-0.34674716
173	0xbe390a14	-0.18070251
174	0x3e4595f4	0.19295484
175	0xbdf266d4	-0.11836019
176	0xbdd7f446	-0.10544638
177	0x3e327bb6	0.17430004
178	0xbe918ac9	-0.28426197
179	0xbee0d063	-0.43908986
180	0xbd3f4f65	-0.046706576
181	0x3e13b4f4	0.14424497
182	0x3e30134a	0.17194858
183	0xbda2ba80	-0.07945728
184	0x3eb27143	0.34852037
185	0x3cf226ae	0.02955946
186	0x3e9fa2fc	0.31179035
187	0x3f2d8a44	0.677891
188	0x3f1392cd	0.57645875
189	0xbe6c82e0	-0.230968
190	0xbe349fa3	-0.17639022
191	0xbe26c17d	-0.16284747
192	0xbf029150	-0.5100298
193	0xbc9080b0	-0.017639488
194	0x3ec586e2	0.3857947
195	0xbee3ec96	-0.44516438
196	0xbcbd1617	-0.023081822
197	0x3e9bf0ea	0.3045724
198	0x3d3219d8	0.043481678
199	0x3d83b180	0.0643034
200	0x3dbcad9e	0.09212802
201	0x3d8939ab	0.067004524
202	0x3e1efb6a	0.15525594
203	0x3e5df1a1	0.21674205
204	0x3e0623df	0.13099621
205	0x3e5b792e	0.21432945
206	0x3eae955e	0.34098333
207	0x3ec3d2e5	0.38246837
208	0x3f15c805	0.5850833
209	0x3f8423f2	1.032347
210	0xbf2c005a	-0.67188036
211	0x3ee34923	0.44391736
212	0x3d57fe05	0.052732486
213	0x3f32dbf0	0.6986685
214	0x4005ba3b	2.0894916
215	0x3ff2e575	1.8976275

onnx::Conv_778 f4 [24]
0	0x40c70b45	6.2201257
1	0x40009dcd	2.0096314
2	0x3fb4d6f1	1.4128095
3	0xc0f87791	-7.7645955
4	0x3f9434ff	1.1578673
5	0xc01c0929	-2.438059
6	0x407da206	3.9630141
7	0xb3d286b0	-9.8033865e-08
8	0xbf18b072	-0.59644234
9	0x3f71d6cf	0.94468397
10	0xc0822395	-4.0668435
11	0x33ba3026	8.670058e-08
12	0x3f2dc012	0.678712
13	0xbc1bf8d7	-0.009519777
14	0x3f057648	0.5213361
15	0x33b72926	8.5290864e-08
16	0x403f04b5	2.9846623
17	0xb568fd23	-8.67951e-07
18	0x3f1dfb70	0.6171179
19	0x3f4cd8b6	0.80018175
20	0xbf8ead0b	-1.1146559
21	0x3faa83ff	1.3321532
22	0xbf5411a7	-0.82839435
23	0xc00a37c5	-2.159654

onnx::Conv_780 f4 [24, 24, 1, 1]
0	0xbda52a8e	-0.08064757
1	0x3c35954a	0.011082957
2	0x3d37e1d7	0.044893112
3	0xbe183ee3	-0.1486774
4	0xbd81b293	-0.063328885
5	0xbce1921d	-0.027535493
6	0xbd4c9a0d	-0.0499516
7	0xbba291e7	-0.0049612406
8	0xbcb3480c	-0.02188494
9	0x3c27d7a4	0.010244284
10	0x3cd96367	0.026536657
11	0xaa237d5c	-1.4520801e-13
12	0xbd2d54b5	-0.04231711
13	0xbc73ce53	-0.0148807345
14	0x3c83b82c	0.01607903
15	0xaa0d9b7f	-1.2577264e-13
16	0x3c8c6b7f	0.017141102
17	0x3d0d6f4a	0.03452996
18	0x3d47327f	0.04863214
19	0x3cc92ac2	0.024556521
20	0x3c9819f8	0.01856707
21	0xbc3725b8	-0.011178426
22	0x3bf2ff00	0.0074156523
23	0x3cedc800	0.029026031
24	0xbc875958	-0.016522095
25	0x3ca7f41f	0.020502148
26	0x3d8ada7a	0.06779952
27	0xbc81d9be	-0.015850898
28	0x3b4bdcd5	0.0031106968
29	0x3c9e99f8	0.019360527
30	0xbce4a197	-0.027909083
31	0x3bbf77ae	0.0058431244
32	0x3b88b6de	0.00417219
33	0x3bbeea90	0.005826302
34	0x3dd0d330	0.10196531
35	0x2a876c00	2.4055757e-13
36	0x3b736977	0.003714172
37	0xbc41161b	-0.0117850555
38	0xbc06c6d6	-0.008226117
39	0x29c3292f	8.666884e-14
40	0x3bba97d3	0.0056943684
41	0x3b8be044	0.004268678
42	0xbc264d80	-0.010150313
43	0xba29c529	-0.00064762175
44	0x3c661b32	0.01404457
45	0xbc8b930b	-0.017037889
46	0xbbe50ca1	-0.006990031
47	0x3d23bae0	0.03997314
48	0x3e96fb23	0.29488477
49	0xbc0f599b	-0.008749391
50	0xbecb3801	-0.39691165
51	0xbd47f609	-0.04881862
52	0xbdc8c1b2	-0.098025694
53	0x3c714de0	0.0147280395
54	0x3e4caf8d	0.19988842
55	0x3b094078	0.0020942967
56	0x3c9b0ac8	0.01892604
57	0xbd5b648f	-0.053562697
58	0xbe237732	-0.15963438
59	0x2a44ff97	1.7496973e-13
60	0xbd0b37cf	-0.03398877
61	0xbb202f33	-0.0024442195
62	0xbc67a29f	-0.014137893
63	0x299f716e	7.0806954e-14
64	0xbbb28749	-0.005448256
65	0x3b9a22aa	0.0047038393
66	0xbd977891	-0.07396043
67	0xbda05a7d	-0.07829759
68	0xbcf9a917	-0.030476136
69	0xbc265a9b	-0.010153438
70	0xbd89aba4	-0.06722191
71	0xbd9a7998	-0.075427234
72	0x3d79e4dc	0.061009273
73	0xbc5a1c55	-0.013312419
74	0xbbb3778b	-0.005476897
75	0xbc77a2f4	-0.015114535
76	0xbc302f0a	-0.0107534025
77	0x3b87cdb3	0.0041443943
78	0x3c692621	0.014230282
79	0x3b972533	0.004612589
80	0xbb1bd4c6	-0.0023777946
81	0xbc40b010	-0.011760727
82	0xbdf55868	-0.11979753
83	0xa953798c	-4.6956837e-14
84	0xbc3c21ab	-0.011482636
85	0x3c946821	0.018116059
86	0xba920ff7	-0.0011143674
87	0x29992824	6.801528e-14
88	0xbc8647e2	-0.016391698
89	0x3b572d56	0.0032833419
90	0xbd113979	-0.0354552
91	0xbbcefa11	-0.0063164313
92	0xbb5bcba5	-0.003353813
93	0xbc0addb3	-0.008475709
94	0xbc116551	-0.008874253
95	0xbc53ecd3	-0.012934881
96	0xbec8c978	-0.39216208
97	0xbd8b7cfb	-0.068109475
98	0xbe7a3d3b	-0.2443742
99	0xbe9586a8	-0.29204297
100	0xbcca126e	-0.024666991
101	0xbd68a5cd	-0.056798745
102	0xbdc734b2	-0.09726848
103	0xba78ce49	-0.0009491188
104	0x3bc1a083	0.005909027
105	0x3d1c553c	0.038167223
106	0x3f0524c0	0.520092
107	0xa87e6a25	-1.4122849e-14
108	0x3d3298a0	0.043602586
109	0x3b6bb94f	0.0035968607
110	0xbbe9f319	-0.007139575
111	0x289a409c	1.7125454e-14
112	0x3dd321eb	0.10309204
113	0xb9b5d1b9	-0.00034679266
114	0xbc896235	-0.016770462
115	0x3b23d643	0.0024999536
116	0x3d5d402a	0.05401627
117	0xbbc2f050	-0.0059490576
118	0x3b0d6f5f	0.0021581275
119	0x3e107d57	0.14110313
120	0xbcbb80bd	-0.022888536
121	0x3d518b13	0.051158022
122	0x3decac5c	0.115563124
123	0x3ce26913	0.027637994
124	0x3da56846	0.08076529
125	0x3d076053	0.033050846
126	0xbcbf5d20	-0.023359835
127	0x3b9dec7a	0.00481945
128	0x3c428594	0.011872668
129	0x3a05b2e8	0.00051002065
130	0x3d88e0e9	0.06683523
131	0xaa77f7f9	-2.202404e-13
132	0xbadc8cb3	-0.00168266
133	0xbc7fe59b	-0.015618707
134	0x3b9425ef	0.0045211236
135	0xa9dbf270	-9.76761e-14
136	0x3c121abf	0.00891751
137	0xbb8e4740	-0.0043419898
138	0x3d056a15	0.03257187
139	0xba88c140	-0.001043357
140	0x3c9b50b2	0.018959377
141	0x3cf4dc42	0.029890183
142	0x3c38e5ed	0.011285287
143	0x3d970660	0.07374263
144	0x3b8f441f	0.0043721343
145	0xbb542742	-0.0032372032
146	0xbb488f49	-0.0030602983
147	0x3aac528a	0.0013147157
148	0xbb7181f5	-0.0036851142
149	0xbb1fade3	-0.002436512
150	0x3a72779c	0.00092493906
151	0xba1560e8	-0.0005698339
152	0x382f202d	4.1753217e-05
153	0xba14e1c8	-0.0005679396
154	0xbbcf520f	-0.006326921
155	0x272be093	2.385276e-15
156	0xb96f3258	-0.0002281157
157	0xb9a475cb	-0.0003136828
158	0xb90ad03f	-0.00013238283
159	0xa74626e0	-2.7499094e-15
160	0xba5dc403	-0.0008459689
161	0xb85ef212	-5.315437e-05
162	0xba94be1e	-0.0011348163
163	0xba489b47	-0.00076525327
164	0x39d2ceba	0.00040208345
165	0x3aa0fde3	0.0012282695
166	0xba3c9908	-0.00071944343
167	0xbabacbfe	-0.0014251468
168	0x3d29eda8	0.041486412
169	0xbd18c47e	-0.037296765
170	0xbd11055d	-0.035405505
171	0x3c86fe0e	0.016478565
172	0x3cb32e23	0.021872586
173	0xbc8dbe23	-0.017302578
174	0x3b15209e	0.0022755037
175	0x3bc37816	0.005965243
176	0xbc9259c9	-0.017865079
177	0xbcc997e6	-0.024608564
178	0xbcf70a05	-0.030156145
179	0xa9a6f9ad	-7.415193e-14
180	0xbbab8cf5	-0.0052353092
181	0x3bb0a7b7	0.005391087
182	0xbc20ea4d	-0.009821487
183	0xaa2cd2fa	-1.5349866e-13
184	0xbc0a79fe	-0.008451937
185	0x3b3c5d41	0.0028742107
186	0x3d2bcdd7	0.04194435
187	0x3b449a77	0.0029999295
188	0xbc3e6e0c	-0.011622917
189	0x3cc72a83	0.024312263
190	0x3c2fb52d	0.010724348
191	0xbb370417	-0.0027926022
192	0x3da6dbee	0.08147417
193	0xbcda1297	-0.026620192
194	0x3db0842e	0.08618961
195	0x3a8d7bc8	0.0010794336
196	0xbdc3c4a1	-0.09558988
197	0x3d6c8f28	0.057753712
198	0xbd812ca3	-0.06307342
199	0xbb7f84da	-0.0038989098
200	0x3b72288c	0.0036950437
201	0xbd0948ff	-0.03351688
202	0xbe627b70	-0.221174
203	0xa9a1d86c	-7.1873795e-14
204	0xbd4e3a71	-0.050348703
205	0x3bc46c1a	0.005994332
206	0xbc70f04a	-0.014705727
207	0xa9d97d96	-9.6585215e-14
208	0xbd06ac48	-0.032879144
209	0x3b9d14a8	0.004793722
210	0xbd1d101e	-0.03834545
211	0xbcc2ea7a	-0.023793448
212	0x3a9950fa	0.0011697107
213	0xbd92a2cc	-0.07159957
214	0xbd0e1a78	-0.03469321
215	0xbd44b505	-0.048024196
216	0xbd39de69	-0.045378122
217	0x3b9ead85	0.0048424625
218	0xbccfa572	-0.025347445
219	0x3bfcecee	0.007718674
220	0x3bd46374	0.0064815823
221	0xbcc33caa	-0.023832638
222	0x3c24e674	0.01006471
223	0x39f1f33f	0.00046148335
224	0xbb8015c4	-0.0039088447
225	0x3ae797be	0.0017669124
226	0xbc20428c	-0.009781491
227	0xa99daf78	-7.0026396e-14
228	0xbb0d7334	-0.002158356
229	0x3a1d4726	0.00059996767
230	0x3bdb2248	0.0066874363
231	0x28937d87	1.6374717e-14
232	0xbcd53d1e	-0.02603012
233	0x3a71cd97	0.00092240557
234	0xba45f552	-0.0007551509
235	0x3b05310a	0.002032342
236	0xbb0b93cc	-0.002129781
237	0x3d12a90c	0.035805747
238	0x3c1e1c15	0.00965025
239	0xbc2d1bcb	-0.010565708
240	0x3d19b004	0.037521377
241	0x3b96efa1	0.0046062027
242	0x3cea69df	0.028614936
243	0x3b118453	0.0022204116
244	0xbce38c92	-0.02777699
245	0x3beb3714	0.0071781967
246	0xbc5e383a	-0.01356321
247	0x3b8f40ff	0.004371762
248	0x3a504355	0.00079446036
249	0xbc12e623	-0.008966002
250	0xbcd8d295	-0.0264676
251	0x28ef4b86	2.6567083e-14
252	0xb8e2fd3e	-0.0001082369
253	0x3b76df10	0.0037669577
254	0x3ab3e70e	0.0013725476
255	0x28774b92	1.3727641e-14

onnx::Conv_781 f4 [24]
0	0x3fbe3483	1.4859775
1	0xbe5d1aff	-0.2159233
2	0x3f4f8b8b	0.810723
3	0xbee3d0c7	-0.44495222
4	0x40232f53	2.5497634
5	0xbe71f5de	-0.23628947
6	0xbf7b0e3c	-0.98068595
7	0xbd806202	-0.062686935
8	0x3e69bf12	0.22826794
9	0xbef9b6e6	-0.48772353
10	0x3f1f1a50	0.62149525
11	0x3e8a1856	0.26971692
12	0x3daa84ef	0.08326136
13	0x3d8c5b2d	0.06853328
14	0xbec060a5	-0.37573734
15	0xbe9661b5	-0.2937142
16	0x3e23f4ff	0.16011427
17	0x3f16bdeb	0.5888354
18	0x3ec82ba0	0.39095783
19	0x3d75c7ce	0.060005
20	0x3f10d5b2	0.56576073
21	0xbea4b22c	-0.32167184
22	0x3d4ec671	0.050482217
23	0x3ea14604	0.3149873

onnx::Conv_783 f4 [24, 24, 1, 1]
0	0x3e4e339d	0.20136876
1	0xbcab2d31	-0.020895572
2	0x3df8aa5c	0.121418685
3	0x3d9bbe2e	0.07604633
4	0x3cc14048	0.023590222
5	0x3cfb91ce	0.030709174
6	0x3b64c57b	0.0034907747
7	0x3d0ab7b4	0.0338666
8	0x3d9a10f8	0.07522768
9	0xbdb1ae34	-0.08675805
10	0x3e25cf42	0.16192344
11	0x2a667eae	2.0472054e-13
12	0x3c43b93e	0.011946021
13	0x3d43ffbc	0.04785131
14	0x3d575d4a	0.0525792
15	0xa8dc2997	-2.4442943e-14
16	0x3cfd25df	0.030901847
17	0x3d41ffdc	0.047363147
18	0x3d013d79	0.031552766
19	0x3cd7442b	0.026277622
20	0xbb9f77f2	-0.0048665935
21	0x3d825c8e	0.0636531
22	0x3ce091ff	0.027413366
23	0xbcb5037c	-0.022096388
24	0x3d00277f	0.031287666
25	0x3c878b10	0.016545802
26	0x3ca56bee	0.020193066
27	0xbcfd2aba	-0.030904163
28	0x3cac65b1	0.021044584
29	0x3cf7f6c4	0.030269034
30	0x3ccb9913	0.024853265
31	0x3a3f5e7e	0.0007300152
32	0xbcce2a39	-0.025166618
33	0xbc42a086	-0.011879092
34	0x3cb0e3fa	0.021593083
35	0xa9a1322e	-7.158541e-14
36	0x3c32fc7e	0.010924457
37	0x3c87cd53	0.016577398
38	0xbc2d8560	-0.010590881
39	0x2761b45f	3.1322802e-15
40	0xbc0dca2f	-0.008654161
41	0x3b5aeedd	0.0033406534
42	0xbc89ef50	-0.016837746
43	0xbd13aa55	-0.036051113
44	0x3c5c749e	0.013455538
45	0x3d0854e7	0.033284094
46	0x3c0a52e6	0.008442616
47	0xbaf0ae65	-0.001836252
48	0xbc8be7a9	-0.017078238
49	0xbba47c53	-0.0050197034
50	0xbcc8e14b	-0.02452149
51	0x3ce50edd	0.027961189
52	0x3c514e30	0.012774989
53	0xbc99c45e	-0.018770393
54	0xbd4e02c0	-0.05029559
55	0xbbcead5d	-0.0063072876
56	0xbbcbad1b	-0.006215704
57	0xbbacbb51	-0.0052713533
58	0xbb6577c9	-0.0035014024
59	0x29a5a666	7.3563375e-14
60	0x3b11ac97	0.0022228116
61	0x3acd031e	0.0015641188
62	0xbbb76bea	-0.005597581
63	0x2871bc51	1.3419022e-14
64	0x3c146cc3	0.009059134
65	0xbc11380c	-0.00886346
66	0xbba0fc3e	-0.004912882
67	0xbb6e05b8	-0.0036319327
68	0x3b6bf5d3	0.0036004677
69	0xbcc182c8	-0.023621932
70	0xbc147c7b	-0.009062882
71	0xbb23fe49	-0.0025023392
72	0x3c62ab68	0.013834812
73	0xbc916db2	-0.017752502
74	0xbc252db5	-0.010081698
75	0xbc0f1714	-0.00873353
76	0x3c8c32ce	0.01711407
77	0x3c308398	0.010773562
78	0x3c93369b	0.017970374
79	0xbbba5187	-0.0056859883
80	0xba813a4f	-0.0009859296
81	0xbb9a5d05	-0.004710796
82	0xba9d1676	-0.0011984843
83	0x28a1bca2	1.7956397e-14
84	0x3cf7e870	0.030262202
85	0x3c560521	0.013062746
86	0x3b821641	0.003969938
87	0xa8c5204c	-2.18854e-14
88	0x3c80a7ba	0.015704978
89	0x3ae0c3a9	0.0017148155
90	0x3b528474	0.0032122405
91	0xbbc9111b	-0.0061360723
92	0xbce6e59c	-0.028185658
93	0x3d2f92bf	0.042864557
94	0x3bb2ead9	0.005460125
95	0xbb27fb0c	-0.0025631813
96	0xbbbe9f4d	-0.00581733
97	0xbc593a8c	-0.013258588
98	0xbb6d9ee9	-0.0036258048
99	0xbc42e4bb	-0.011895354
100	0xbaa9c10f	-0.0012951213
101	0x3b9832ed	0.0046447427
102	0xbb75f51f	-0.0037530137
103	0xbac8f010	-0.0015330333
104	0xbc5430c1	-0.012951077
105	0xbc219c25	-0.009863888
106	0xbc06afdb	-0.008220638
107	0x28844813	1.4686201e-14
108	0xbb5b72d1	-0.0033485184
109	0x38d84720	0.00010312931
110	0xbc5e4584	-0.0135663785
111	0x28c95267	2.2351219e-14
112	0xbbf2cef7	-0.007409926
113	0xbaf1fd1b	-0.0018462272
114	0xbc805979	-0.015667664
115	0xbc830f18	-0.015998408
116	0xbc5cff91	-0.013488666
117	0x3c429a35	0.011877586
118	0x3a889d2d	0.0010422819
119	0xbc87c21b	-0.016572049
120	0xbd09d44b	-0.033649724
121	0x3c7d6f65	0.015468453
122	0x3d823a2c	0.06358752
123	0xbd83027f	-0.063969605
124	0x3c3718b3	0.011175322
125	0xbadc7d11	-0.0016821941
126	0x3cd0a3fb	0.025468817
127	0xbcb1c9a0	-0.021702588
128	0xbcf2585c	-0.029583149
129	0x3caa2bfa	0.020772923
130	0xbd1f10f5	-0.03883453
131	0x28ca0631	2.242919e-14
132	0xbcfc4da0	-0.030798733
133	0xbca2d533	-0.019877052
134	0xbca12af4	-0.019673802
135	0x289b834a	1.7265394e-14
136	0xbd5a65be	-0.053319685
137	0xbce6e8c9	-0.028187172
138	0xbdbaf62c	-0.09128985
139	0xbcf16a72	-0.029469702
140	0x3c472bc7	0.012156433
141	0x3b6305fc	0.0034641018
142	0xbb6e78f9	-0.0036388023
143	0x3cdb411f	0.02676445
144	0x3cf82401	0.030290606
145	0x3c2dfcd0	0.010619357
146	0xbcfdfec3	-0.031005269
147	0x3c999ca2	0.018751446
148	0xbbb4def1	-0.0055197407
149	0x3b6b7e05	0.0035933268
150	0xb99dbd59	-0.00030086449
151	0x3aec2801	0.0018017293
152	0x3a44dd76	0.0007509807
153	0xbba8597a	-0.0051376196
154	0x3d128807	0.035774257
155	0x289f92ec	1.7716263e-14
156	0xbcadc613	-0.021212613
157	0xbc97fe50	-0.018553883
158	0xbbfb7599	-0.007673931
159	0x293e7f0b	4.2298667e-14
160	0xbc81c75c	-0.015842132
161	0x3b668d85	0.0035179567
162	0x3c88d7a5	0.01670439
163	0x3aac71be	0.0013156456
164	0x3d019517	0.031636324
165	0x3aa28c3d	0.0012401413
166	0xbbbdb5d4	-0.005789498
167	0x3c646c9b	0.013941909
168	0x3d83a80b	0.06428536
169	0xbcc8936b	-0.024484357
170	0x3e357ad5	0.17722638
171	0xbe305f96	-0.17223963
172	0xbc209343	-0.009800735
173	0xbcc23b6a	-0.023709971
174	0x3e8327d8	0.25616336
175	0xbdebcbb1	-0.115134604
176	0x3f13231f	0.57475466
177	0x3edd317e	0.43201822
178	0x3f345365	0.7043975
179	0x2b72cca4	8.6259667e-13
180	0x3f41649d	0.7554415
181	0x3e6b7d72	0.22997072
182	0x3f05d806	0.5228275
183	0xab53aa29	-7.5198403e-13
184	0x3f1e87f5	0.61926204
185	0xbd80f0e4	-0.06295946
186	0x3e1cc697	0.15310131
187	0x3f200d81	0.62520605
188	0xbf333d1d	-0.70015126
189	0xbe71b615	-0.23604615
190	0x3d5e3ac1	0.05425525
191	0xbe60791a	-0.21921197
192	0xbe435971	-0.19077088
193	0xbd9d4880	-0.07679844
194	0xbd8d7084	-0.06906226
195	0xbdf6cd95	-0.120509304
196	0xbdcbeb8d	-0.09957037
197	0xbcb15730	-0.02164802
198	0xbd15cd24	-0.03657259
199	0xbcb5efaf	-0.022209017
200	0xbb485716	-0.0030569485
201	0x3c8b1913	0.01697973
202	0xbe18766e	-0.14888927
203	0xaa7adc0e	-2.2280807e-13
204	0x3cf8845b	0.03033655
205	0x3d11f0c5	0.035630006
206	0xba8b3e49	-0.0010623421
207	0xa6f07eb9	-1.6687694e-15
208	0x3da4527e	0.08023547
209	0x3d3912e7	0.045184042
210	0x3dae249a	0.08503075
211	0x3d7c366e	0.061575346
212	0xbdda8ea5	-0.106717385
213	0xbe00c5af	-0.1257541
214	0xbd822341	-0.063543804
215	0xbd0b0fa0	-0.033950448
216	0xbd028288	-0.031862766
217	0xbccdb174	-0.02510903
218	0xbbbbffe1	-0.0057372903
219	0x3d070a7f	0.032968994
220	0xbcb2a011	-0.021804841
221	0x3a886c21	0.0010408201
222	0xbd930a1b	-0.07179662
223	0x3c31b1a6	0.010845577
224	0x3c3d3637	0.01154857
225	0x3b6722bb	0.0035268504
226	0xbcccc03e	-0.024994012
227	0xa9989eb1	-6.7776846e-14
228	0xbb943b2a	-0.0045236545
229	0xbbe9124f	-0.0071127783
230	0xbc4e5ecb	-0.012595843
231	0xa90e2e94	-3.1570734e-14
232	0x3ca12c04	0.019674309
233	0x3b84af88	0.0040492453
234	0xbbf301d8	-0.0074159913
235	0x3cd10343	0.02551425
236	0xbbdf2e25	-0.006810921
237	0xbc94269f	-0.018084822
238	0xbcf157da	-0.029460836
239	0xbc61524e	-0.013752533
240	0x3e2abe18	0.16674078
241	0xbd08c56a	-0.033391394
242	0xbd60b221	-0.054857377
243	0xbd07852e	-0.033085994
244	0x3da2202c	0.079162925
245	0x3d46dd4a	0.04855088
246	0x3e0a3768	0.13497698
247	0x3c167026	0.009182012
248	0xbc43dc37	-0.011954359
249	0xbdb8a06d	-0.09014974
250	0xbe12dbf8	-0.14341724
251	0x293819ef	4.08787e-14
252	0xbe19ae9f	-0.15008019
253	0xbd06d63c	-0.032919154
254	0xbd6db45b	-0.05803333
255	0xaa6b414d	-2.0894849e-13

onnx::Conv_784 f4 [24]
0	0xbfb0f150	-1.3823643
1	0xbfa0f144	-1.2573628
2	0xbeb03f32	-0.34423214
3	0xbfa896cc	-1.317102
4	0x3fd1f618	1.6403227
5	0x3f6fccf8	0.9367213
6	0xbec3ecf7	-0.38266727
7	0xbfc0cbe5	-1.5062224
8	0x4081e8ae	4.0596533
9	0x3eb057fc	0.34442127
10	0x3f5c6d38	0.86104155
11	0x3f461e8e	0.7739037
12	0x3f8d965f	1.1061515
13	0x402702c5	2.609544
14	0x3f3c29f6	0.7350153
15	0x3f522f7a	0.82103693
16	0x3eb73f5f	0.35790536
17	0xbfce3fc6	-1.6113212
18	0xbd34ffc4	-0.04418923
19	0xbef72b58	-0.48275256
20	0x40092460	2.1428452
21	0x3e03a4bf	0.12855814
22	0xc04604fb	-3.094054
23	0x3f9d52be	1.2290876
